========================================================================================================================
Layer (type:depth-idx)                   Kernel Shape         Output Shape         Param #              Mult-Adds
========================================================================================================================
├─Conv2d: 1-1                            [1, 10, 5, 5]        [1, 10, 24, 24]      260                  144,000
├─Conv2d: 1-2                            [10, 20, 5, 5]       [1, 20, 8, 8]        5,020                320,000
├─Dropout2d: 1-3                         --                   [1, 20, 8, 8]        --                   --
├─Linear: 1-4                            [320, 50]            [1, 50]              16,050               16,000
├─Linear: 1-5                            [50, 10]             [1, 10]              510                  500
========================================================================================================================
Total params: 21,840
Trainable params: 21,840
Non-trainable params: 0
Total mult-adds (M): 0.48
========================================================================================================================
Input size (MB): 0.00
Forward/backward pass size (MB): 0.05
…
