==========================================================================================
Layer (type:depth-idx)                   Output Shape              Param #
==========================================================================================
├─Conv2d: 1-1                            [7, 10, 24, 24]           260
├─Conv2d: 1-2                            [7, 20, 8, 8]             5,020
├─Dropout2d: 1-3                         [7, 20, 8, 8]             --
├─Linear: 1-4                            [7, 50]                   16,050
├─Linear: 1-5                            [7, 10]                   510
==========================================================================================
Total params: 21,840
Trainable params: 21,840
Non-trainable params: 0
Total mult-adds (M): 0.48
==========================================================================================
Input size (MB): 0.02
Forward/backward pass size (MB): 0.38
Params size (MB): 0.08
Estimated Total Size (MB): 0.48
==========================================================================================
