==========================================================================================
Layer (type:depth-idx)                   Output Shape              Param #
==========================================================================================
CNNModuleList                            [1, 1, 10]                --
├─ModuleList: 1-1                        --                        --
│    └─ConvLayerA: 2-1                   [1, 1, 10]                --
│    │    └─Conv1d: 3-1                  [1, 1, 10]                2
│    │    └─ReLU: 3-2                    [1, 1, 10]                --
│    │    └─MaxPool1d: 3-3               [1, 1, 10]                --
│    └─ConvLayerA: 2-2                   [1, 1, 10]                --
│    │    └─Conv1d: 3-4                  [1, 1, 10]                2
│    │    └─ReLU: 3-5                    [1, 1, 10]                --
│    │    └─MaxPool1d: 3-6               [1, 1, 10]                --
│    └─ConvLayerA: 2-3                   [1, 1, 10]                --
│    │    └─Conv1d: 3-7                  [1, 1, 10]                2
│    │    └─ReLU: 3-8                    [1, 1, 10]                --
│    │    └─MaxPool1d: 3-9               [1, 1, 10]                --
│    └─ConvLayerA: 2-4                   [1, 1, 10]                --
│    │    └─Conv1d: 3-10                 [1, 1, 10]                2
│    │    └─ReLU: 3-11                   [1, 1, 10]                --
│    │    └─MaxPool1d: 3-12              [1, 1, 10]                --
│    └─ConvLayerA: 2-5                   [1, 1, 10]                --
│    │    └─Conv1d: 3-13                 [1, 1, 10]                2
│    │    └─ReLU: 3-14                   [1, 1, 10]                --
│    │    └─MaxPool1d: 3-15              [1, 1, 10]                --
==========================================================================================
Total params: 10
Trainable params: 10
Non-trainable params: 0
Total mult-adds: 100
==========================================================================================
Input size: 112
Forward/backward pass size: 400
Params size: 40
Estimated Total Size: 552
==========================================================================================
==========================================================================================
Layer (type:depth-idx)                   Output Shape              Param #
==========================================================================================
CNNModuleList                            [1, 1, 10]                --
├─ModuleList: 1-1                        --                        --
│    └─ConvLayerB: 2-1                   [1, 1, 10]                --
│    │    └─Conv1d: 3-1                  [1, 1, 10]                2
│    │    └─ReLU: 3-2                    [1, 1, 10]                --
│    │    └─MaxPool1d: 3-3               [1, 1, 10]                --
│    └─ConvLayerB: 2-2                   [1, 1, 10]                --
│    │    └─Conv1d: 3-4                  [1, 1, 10]                2
│    │    └─ReLU: 3-5                    [1, 1, 10]                --
│    │    └─MaxPool1d: 3-6               [1, 1, 10]                --
│    └─ConvLayerB: 2-3                   [1, 1, 10]                --
│    │    └─Conv1d: 3-7                  [1, 1, 10]                2
│    │    └─ReLU: 3-8                    [1, 1, 10]                --
│    │    └─MaxPool1d: 3-9               [1, 1, 10]                --
│    └─ConvLayerB: 2-4                   [1, 1, 10]                --
│    │    └─Conv1d: 3-10                 [1, 1, 10]                2
│    │    └─ReLU: 3-11                   [1, 1, 10]                --
│    │    └─MaxPool1d: 3-12              [1, 1, 10]                --
│    └─ConvLayerB: 2-5                   [1, 1, 10]                --
│    │    └─Conv1d: 3-13                 [1, 1, 10]                2
│    │    └─ReLU: 3-14                   [1, 1, 10]                --
│    │    └─MaxPool1d: 3-15              [1, 1, 10]                --
==========================================================================================
Total params: 10
Trainable params: 10
Non-trainable params: 0
Total mult-adds: 100
==========================================================================================
Input size: 112
Forward/backward pass size: 400
Params size: 40
Estimated Total Size: 552
==========================================================================================
