===============================================================================================
Layer (type:depth-idx)                        Output Shape              Param #
===============================================================================================
FactorizedPrior                               [1, 192, 16, 16]          --
├─Sequential: 1-1                             [1, 192, 16, 16]          --
│    └─Conv2d: 2-1                            [1, 128, 128, 128]        9,728
│    └─GDN: 2-2                               [1, 128, 128, 128]        16,512
│    │    └─NonNegativeParametrizer: 3-1      [128]                     --
│    │    └─NonNegativeParametrizer: 3-2      [128, 128]                --
│    └─Conv2d: 2-3                            [1, 128, 64, 64]          409,728
│    └─GDN: 2-4                               [1, 128, 64, 64]          16,512
│    │    └─NonNegativeParametrizer: 3-3      [128]                     --
│    │    └─NonNegativeParametrizer: 3-4      [128, 128]                --
│    └─Conv2d: 2-5                            [1, 128, 32, 32]          409,728
│    └─GDN: 2-6                               [1, 128, 32, 32]          16,512
│    │    └─NonNegativeParametrizer: 3-5      [128]                     --
│    │    └─NonNegativeParametrizer: 3-6      [128, 128]                --
│    └─Conv2d: 2-7                            [1, 192, 16, 16]          614,592
├─EntropyBottleneck: 1-2                      [1, 192, 16, 16]          11,712
│    └─LowerBound: 2-8                        [192, 1, 256]             --
├─Sequential: 1-3                             [1, 3, 256, 256]          --
│    └─ConvTranspose2d: 2-9                   [1, 128, 32, 32]          614,528
│    └─GDN: 2-10                              [1, 128, 32, 32]          16,512
│    │    └─NonNegativeParametrizer: 3-7      [128]                     --
│    │    └─NonNegativeParametrizer: 3-8      [128, 128]                --
│    └─ConvTranspose2d: 2-11                  [1, 128, 64, 64]          409,728
│    └─GDN: 2-12                              [1, 128, 64, 64]          16,512
│    │    └─NonNegativeParametrizer: 3-9      [128]                     --
│    │    └─NonNegativeParametrizer: 3-10     [128, 128]                --
│    └─ConvTranspose2d: 2-13                  [1, 128, 128, 128]        409,728
│    └─GDN: 2-14                              [1, 128, 128, 128]        16,512
│    │    └─NonNegativeParametrizer: 3-11     [128]                     --
│    │    └─NonNegativeParametrizer: 3-12     [128, 128]                --
│    └─ConvTranspose2d: 2-15                  [1, 3, 256, 256]          9,603
===============================================================================================
Total params: 2,998,147
Trainable params: 2,998,147
Non-trainable params: 0
Total mult-adds (G): 12.06
===============================================================================================
Input size (MB): 0.79
Forward/backward pass size (MB): 46.01
Params size (MB): 11.55
Estimated Total Size (MB): 58.34
…
