==========================================================================================
Layer (type:depth-idx)                   Output Shape              Param #
==========================================================================================
ContainerModule                          [1, 5]                    --
в”њв”ЂModuleList: 1-1                        --                        --
в”‚    в””в”ЂLinear: 2-1                       [1, 5]                    30
в”‚    в””в”ЂContainerChildModule: 2-2         [1, 5]                    --
в”‚    в”‚    в””в”ЂSequential: 3-1              [1, 5]                    --
в”‚    в”‚    в”‚    в””в”ЂLinear: 4-1             [1, 5]                    30
в”‚    в”‚    в”‚    в””в”ЂLinear: 4-2             [1, 5]                    30
в”‚    в”‚    в””в”ЂLinear: 3-2                  [1, 5]                    30
в”‚    в”‚    в””в”ЂSequential: 3-3              --                        (recursive)
в”‚    в”‚    в”‚    в””в”ЂLinear: 4-3             [1, 5]                    (recursive)
в”‚    в”‚    в”‚    в””в”ЂLinear: 4-4             [1, 5]                    (recursive)
в”‚    в”‚    в””в”ЂSequential: 3-4              [1, 5]                    (recursive)
в”‚    в”‚    в”‚    в””в”ЂLinear: 4-5             [1, 5]                    (recursive)
в”‚    в”‚    в”‚    в””в”ЂLinear: 4-6             [1, 5]                    (recursive)
в”‚    в”‚    в”‚    в””в”ЂLinear: 4-7             [1, 5]                    (recursive)
в”‚    в”‚    в”‚    в””в”ЂLinear: 4-8             [1, 5]                    (recursive)
в”‚    в””в”ЂLinear: 2-3                       [1, 5]                    30
==========================================================================================
Total params: 150
Trainable params: 150
Non-trainable params: 0
Total mult-adds: 330
==========================================================================================
Input size: 76
Forward/backward pass size: 440
Params size: 600
Estimated Total Size (kB): 1.12
==========================================================================================
…
