==========================================================================================
Layer (type:depth-idx)                   Output Shape              Param #
==========================================================================================
SingleInputNet                           [5, 10]                   --
├─Conv2d: 1-1                            [5, 10, 24, 24]           260
├─Conv2d: 1-2                            [5, 20, 8, 8]             5,020
├─Dropout2d: 1-3                         [5, 20, 8, 8]             --
├─Linear: 1-4                            [5, 50]                   16,050
├─Linear: 1-5                            [5, 10]                   510
==========================================================================================
Total params: 21,840
Trainable params: 21,840
Non-trainable params: 0
Total mult-adds (M): 2.44
==========================================================================================
Input size (kB): 15.75
Forward/backward pass size (kB): 284
Params size (kB): 87.36
Estimated Total Size (kB): 387.11
==========================================================================================
==========================================================================================
Layer (type:depth-idx)                   Output Shape              Param #
==========================================================================================
SingleInputNet                           [5, 10]                   --
├─Conv2d: 1-1                            [5, 10, 24, 24]           260
├─Conv2d: 1-2                            [5, 20, 8, 8]             5,020
├─Dropout2d: 1-3                         [5, 20, 8, 8]             --
├─Linear: 1-4                            [5, 50]                   16,050
├─Linear: 1-5                            [5, 10]                   510
==========================================================================================
Total params: 21,840
Trainable params: 21,840
Non-trainable params: 0
Total mult-adds (M): 2.44
==========================================================================================
Input size (kB): 15.75
Forward/backward pass size (kB): 284
Params size (kB): 87.36
Estimated Total Size (kB): 387.11
==========================================================================================
==========================================================================================
Layer (type:depth-idx)                   Output Shape              Param #
==========================================================================================
SingleInputNet                           [5, 10]                   --
├─Conv2d: 1-1                            [5, 10, 24, 24]           260
├─Conv2d: 1-2                            [5, 20, 8, 8]             5,020
├─Dropout2d: 1-3                         [5, 20, 8, 8]             --
├─Linear: 1-4                            [5, 50]                   16,050
├─Linear: 1-5                            [5, 10]                   510
==========================================================================================
Total params: 21,840
Trainable params: 21,840
Non-trainable params: 0
Total mult-adds (M): 2.44
==========================================================================================
Input size (kB): 15.75
Forward/backward pass size (kB): 284
Params size (kB): 87.36
Estimated Total Size (kB): 387.11
==========================================================================================
==========================================================================================
Layer (type:depth-idx)                   Output Shape              Param #
==========================================================================================
SingleInputNet                           [5, 10]                   --
├─Conv2d: 1-1                            [5, 10, 24, 24]           260
├─Conv2d: 1-2                            [5, 20, 8, 8]             5,020
├─Dropout2d: 1-3                         [5, 20, 8, 8]             --
├─Linear: 1-4                            [5, 50]                   16,050
├─Linear: 1-5                            [5, 10]                   510
==========================================================================================
Total params: 21,840
Trainable params: 21,840
Non-trainable params: 0
Total mult-adds (M): 2.44
==========================================================================================
Input size (kB): 15.75
Forward/backward pass size (kB): 284
Params size (kB): 87.36
Estimated Total Size (kB): 387.11
==========================================================================================
==========================================================================================
Layer (type:depth-idx)                   Output Shape              Param #
==========================================================================================
SingleInputNet                           [5, 10]                   --
├─Conv2d: 1-1                            [5, 10, 24, 24]           260
├─Conv2d: 1-2                            [5, 20, 8, 8]             5,020
├─Dropout2d: 1-3                         [5, 20, 8, 8]             --
├─Linear: 1-4                            [5, 50]                   16,050
├─Linear: 1-5                            [5, 10]                   510
==========================================================================================
Total params: 21,840
Trainable params: 21,840
Non-trainable params: 0
Total mult-adds (M): 2.44
==========================================================================================
Input size (kB): 15.75
Forward/backward pass size (kB): 284
Params size (kB): 87.36
Estimated Total Size (kB): 387.11
==========================================================================================
