…
==================================================================================================================
Layer (type:depth-idx)                   Output Shape              Param #                   Kernel Shape              Mult-Adds
============================================================================================================================================
ResNet                                   --                        --                        --                        --
├─Conv2d: 1-1                            [1, 64, 32, 32]           (9,408)                   [3, 64, 7, 7]             9,633,792
├─BatchNorm2d: 1-2                       [1, 64, 32, 32]           (128)                     [64]                      128
├─ReLU: 1-3                              [1, 64, 32, 32]           --                        --                        --
├─MaxPool2d: 1-4                         [1, 64, 16, 16]           --                        --                        --
├─Sequential: 1-5                        [1, 64, 16, 16]           --                        --                        --
│    └─BasicBlock: 2-1                   [1, 64, 16, 16]           --                        --                        --
│    │    └─Conv2d: 3-1                  [1, 64, 16, 16]           (36,864)                  [64, 64, 3, 3]            9,437,184
│    │    └─BatchNorm2d: 3-2             [1, 64, 16, 16]           (128)                     [64]                      128
│    │    └─ReLU: 3-3                    [1, 64, 16, 16]           --                        --                        --
│    │    └─Conv2d: 3-4                  [1, 64, 16, 16]           (36,864)                  [64, 64, 3, 3]            9,437,184
│    │    └─BatchNorm2d: 3-5             [1, 64, 16, 16]           (128)                     [64]                      128
│    │    └─ReLU: 3-6                    [1, 64, 16, 16]           --                        --                        --
│    └─BasicBlock: 2-2                   [1, 64, 16, 16]           --                        --                        --
│    │    └─Conv2d: 3-7                  [1, 64, 16, 16]           (36,864)                  [64, 64, 3, 3]            9,437,184
│    │    └─BatchNorm2d: 3-8             [1, 64, 16, 16]           (128)                     [64]                      128
│    │    └─ReLU: 3-9                    [1, 64, 16, 16]           --                        --                        --
│    │    └─Conv2d: 3-10                 [1, 64, 16, 16]           (36,864)                  [64, 64, 3, 3]            9,437,184
│    │    └─BatchNorm2d: 3-11            [1, 64, 16, 16]           (128)                     [64]                      128
│    │    └─ReLU: 3-12                   [1, 64, 16, 16]           --                        --                        --
├─Sequential: 1-6                        [1, 128, 8, 8]            --                        --                        --
│    └─BasicBlock: 2-3                   [1, 128, 8, 8]            --                        --                        --
│    │    └─Conv2d: 3-13                 [1, 128, 8, 8]            (73,728)                  [64, 128, 3, 3]           4,718,592
│    │    └─BatchNorm2d: 3-14            [1, 128, 8, 8]            (256)                     [128]                     256
│    │    └─ReLU: 3-15                   [1, 128, 8, 8]            --                        --                        --
│    │    └─Conv2d: 3-16                 [1, 128, 8, 8]            (147,456)                 [128, 128, 3, 3]          9,437,184
│    │    └─BatchNorm2d: 3-17            [1, 128, 8, 8]            (256)                     [128]                     256
│    │    └─Sequential: 3-18             [1, 128, 8, 8]            (8,448)                   --                        524,544
│    │    └─ReLU: 3-19                   [1, 128, 8, 8]            --                        --                        --
│    └─BasicBlock: 2-4                   [1, 128, 8, 8]            --                        --                        --
│    │    └─Conv2d: 3-20                 [1, 128, 8, 8]            (147,456)                 [128, 128, 3, 3]          9,437,184
│    │    └─BatchNorm2d: 3-21            [1, 128, 8, 8]            (256)                     [128]                     256
│    │    └─ReLU: 3-22                   [1, 128, 8, 8]            --                        --                        --
│    │    └─Conv2d: 3-23                 [1, 128, 8, 8]            (147,456)                 [128, 128, 3, 3]          9,437,184
│    │    └─BatchNorm2d: 3-24            [1, 128, 8, 8]            (256)                     [128]                     256
│    │    └─ReLU: 3-25                   [1, 128, 8, 8]            --                        --                        --
├─Sequential: 1-7                        [1, 256, 4, 4]            --                        --                        --
│    └─BasicBlock: 2-5                   [1, 256, 4, 4]            --                        --                        --
│    │    └─Conv2d: 3-26                 [1, 256, 4, 4]            294,912                   [128, 256, 3, 3]          4,718,592
│    │    └─BatchNorm2d: 3-27            [1, 256, 4, 4]            512                       [256]                     512
│    │    └─ReLU: 3-28                   [1, 256, 4, 4]            --                        --                        --
│    │    └─Conv2d: 3-29                 [1, 256, 4, 4]            589,824                   [256, 256, 3, 3]          9,437,184
│    │    └─BatchNorm2d: 3-30            [1, 256, 4, 4]            512                       [256]                     512
│    │    └─Sequential: 3-31             [1, 256, 4, 4]            33,280                    --                        524,800
│    │    └─ReLU: 3-32                   [1, 256, 4, 4]            --                        --                        --
│    └─BasicBlock: 2-6                   [1, 256, 4, 4]            --                        --                        --
│    │    └─Conv2d: 3-33                 [1, 256, 4, 4]            589,824                   [256, 256, 3, 3]          9,437,184
│    │    └─BatchNorm2d: 3-34            [1, 256, 4, 4]            512                       [256]                     512
│    │    └─ReLU: 3-35                   [1, 256, 4, 4]            --                        --                        --
│    │    └─Conv2d: 3-36                 [1, 256, 4, 4]            589,824                   [256, 256, 3, 3]          9,437,184
│    │    └─BatchNorm2d: 3-37            [1, 256, 4, 4]            512                       [256]                     512
│    │    └─ReLU: 3-38                   [1, 256, 4, 4]            --                        --                        --
├─Sequential: 1-8                        [1, 512, 2, 2]            --                        --                        --
│    └─BasicBlock: 2-7                   [1, 512, 2, 2]            --                        --                        --
│    │    └─Conv2d: 3-39                 [1, 512, 2, 2]            1,179,648                 [256, 512, 3, 3]          4,718,592
│    │    └─BatchNorm2d: 3-40            [1, 512, 2, 2]            1,024                     [512]                     1,024
│    │    └─ReLU: 3-41                   [1, 512, 2, 2]            --                        --                        --
│    │    └─Conv2d: 3-42                 [1, 512, 2, 2]            2,359,296                 [512, 512, 3, 3]          9,437,184
│    │    └─BatchNorm2d: 3-43            [1, 512, 2, 2]            1,024                     [512]                     1,024
│    │    └─Sequential: 3-44             [1, 512, 2, 2]            132,096                   --                        525,312
│    │    └─ReLU: 3-45                   [1, 512, 2, 2]            --                        --                        --
│    └─BasicBlock: 2-8                   [1, 512, 2, 2]            --                        --                        --
│    │    └─Conv2d: 3-46                 [1, 512, 2, 2]            2,359,296                 [512, 512, 3, 3]          9,437,184
│    │    └─BatchNorm2d: 3-47            [1, 512, 2, 2]            1,024                     [512]                     1,024
│    │    └─ReLU: 3-48                   [1, 512, 2, 2]            --                        --                        --
│    │    └─Conv2d: 3-49                 [1, 512, 2, 2]            2,359,296                 [512, 512, 3, 3]          9,437,184
│    │    └─BatchNorm2d: 3-50            [1, 512, 2, 2]            1,024                     [512]                     1,024
│    │    └─ReLU: 3-51                   [1, 512, 2, 2]            --                        --                        --
├─AdaptiveAvgPool2d: 1-9                 [1, 512, 1, 1]            --                        --                        --
├─Linear: 1-10                           [1, 1000]                 513,000                   [512, 1000]               513,000
============================================================================================================================================
Total params: 11,689,512
Trainable params: 11,006,440
Non-trainable params: 683,072
Total mult-adds (M): 148.57
============================================================================================================================================
Input size (MB): 0.05
…
