==========================================================================================
Layer (type:depth-idx)                   Output Shape              Param #
==========================================================================================
SimpleRNN                                [2, 3]                    --
├─LSTMCell: 1-1                          [2, 2]                    56
├─Tanh: 1-2                              [2, 2]                    --
├─LSTMCell: 1-3                          [2, 2]                    (recursive)
├─Tanh: 1-4                              [2, 2]                    --
├─LSTMCell: 1-5                          [2, 2]                    (recursive)
├─Tanh: 1-6                              [2, 2]                    --
├─LSTMCell: 1-7                          [2, 2]                    (recursive)
├─Tanh: 1-8                              [2, 2]                    --
├─Linear: 1-9                            [2, 3]                    9
├─Tanh: 1-10                             [2, 3]                    --
==========================================================================================
Total params: 65
Trainable params: 65
Non-trainable params: 0
Total mult-adds (M): 0.00
==========================================================================================
Input size (MB): 0.00
Forward/backward pass size (MB): 0.00
Params size (MB): 0.00
Estimated Total Size (MB): 0.00
==========================================================================================
==========================================================================================
Layer (type:depth-idx)                   Output Shape              Param #
==========================================================================================
SimpleRNN                                [2, 3]                    --
├─LSTMCell: 1-1                          [2, 2]                    56
├─Tanh: 1-2                              [2, 2]                    --
├─Linear: 1-9                            [2, 3]                    9
==========================================================================================
Total params: 65
Trainable params: 65
Non-trainable params: 0
Total mult-adds (M): 0.00
==========================================================================================
Input size (MB): 0.00
Forward/backward pass size (MB): 0.00
Params size (MB): 0.00
Estimated Total Size (MB): 0.00
==========================================================================================
