==========================================================================================
Layer (type:depth-idx)                   Output Shape              Param #
==========================================================================================
MultipleInputNetDifferentDtypes          [2, 10]                   --
├─Linear: 1-1                            [1, 50]                   15,050
├─Linear: 1-2                            [1, 10]                   510
├─Linear: 1-3                            [1, 50]                   15,050
├─Linear: 1-4                            [1, 10]                   510
==========================================================================================
Total params: 31,120
Trainable params: 31,120
Non-trainable params: 0
Total mult-adds (k): 31.12
==========================================================================================
Input size (kB): 1.27
Forward/backward pass size: 960
Params size (kB): 124.48
Estimated Total Size (kB): 126.71
==========================================================================================
