==============================================================================================================
Layer (type (var_name):depth-idx)                            Output Shape              Param #
==============================================================================================================
RecursiveWithMissingLayers (RecursiveWithMissingLayers)      [2, 1, 128, 128]          --
├─Conv2d (out_conv0): 1-1                                    [2, 8, 128, 128]          608
├─BatchNorm2d (out_bn0): 1-2                                 [2, 8, 128, 128]          16
├─ModuleDict (block0): 1-3                                   --                        --
│    └─Conv2d (in_conv1): 2-1                                [2, 8, 128, 128]          584
│    └─BatchNorm2d (in_bn1): 2-2                             [2, 8, 128, 128]          16
│    └─Conv2d (in_conv2): 2-3                                [2, 8, 128, 128]          584
│    └─BatchNorm2d (in_bn2): 2-4                             [2, 8, 128, 128]          16
│    └─Conv2d (in_conv3): 2-5                                [2, 8, 128, 128]          584
│    └─BatchNorm2d (in_bn3): 2-6                             [2, 8, 128, 128]          16
├─ModuleDict (block1): 1-4                                   --                        --
│    └─Conv2d (in_conv4): 2-7                                [2, 8, 128, 128]          584
│    └─BatchNorm2d (in_bn4): 2-8                             [2, 8, 128, 128]          16
│    └─Conv2d (in_conv5): 2-9                                [2, 8, 128, 128]          584
│    └─BatchNorm2d (in_bn5): 2-10                            [2, 8, 128, 128]          16
│    └─Conv2d (in_conv6): 2-11                               [2, 8, 128, 128]          584
│    └─BatchNorm2d (in_bn6): 2-12                            [2, 8, 128, 128]          16
├─Conv2d (out_conv7): 1-5                                    [2, 1, 128, 128]          9
├─BatchNorm2d (out_bn7): 1-6                                 [2, 1, 128, 128]          2
==============================================================================================================
Total params: 4,235
Trainable params: 4,235
Non-trainable params: 0
Total mult-adds (M): 135.04
==============================================================================================================
Input size (MB): 0.39
Forward/backward pass size (MB): 29.88
Params size (MB): 0.02
…
