==========================================================================================
Layer (type (var_name))                  Output Shape              Param #
==========================================================================================
SingleInputNet                           --                        --
├─Conv2d (conv1)                         [16, 10, 24, 24]          260
├─Conv2d (conv2)                         [16, 20, 8, 8]            5,020
├─Dropout2d (conv2_drop)                 [16, 20, 8, 8]            --
├─Linear (fc1)                           [16, 50]                  16,050
├─Linear (fc2)                           [16, 10]                  510
==========================================================================================
Total params: 21,840
Trainable params: 21,840
Non-trainable params: 0
Total mult-adds (M): 7.80
==========================================================================================
Input size (MB): 0.05
Forward/backward pass size (MB): 0.91
Params size (MB): 0.09
Estimated Total Size (MB): 1.05
==========================================================================================
