==========================================================================================
Layer (type (var_name))                  Output Shape              Param #
==========================================================================================
SingleInputNet (SingleInputNet)          [16, 10]                  --
├─Conv2d (conv1)                         [16, 10, 24, 24]          260
├─Conv2d (conv2)                         [16, 20, 8, 8]            5,020
├─Dropout2d (conv2_drop)                 [16, 20, 8, 8]            --
├─Linear (fc1)                           [16, 50]                  16,050
├─Linear (fc2)                           [16, 10]                  510
==========================================================================================
Total params: 21,840
Trainable params: 21,840
Non-trainable params: 0
Total mult-adds (M): 7.80
==========================================================================================
Input size (kB): 50.25
Forward/backward pass size (kB): 908.80
Params size (kB): 87.36
Estimated Total Size (MB): 1.05
==========================================================================================
