==========================================================================================
Layer (type:depth-idx)                   Output Shape              Param #
==========================================================================================
SharedModuleInNestedList                 [1, 4]                    --
├─ModuleList: 1-1                        --                        --
│    └─Block: 2-1                        [1, 4]                    --
│    │    └─ModuleList: 3-3              --                        (recursive)
│    │    │    └─Linear: 4-1             [1, 4]                    20
│    │    └─ReLU: 3-2                    [1, 4]                    --
│    │    └─ModuleList: 3-3              --                        (recursive)
│    │    │    └─Linear: 4-2             [1, 4]                    20
│    │    └─ReLU: 3-4                    [1, 4]                    --
│    └─Block: 2-2                        [1, 4]                    --
│    │    └─ModuleList: 3-7              --                        (recursive)
│    │    │    └─Linear: 4-3             [1, 4]                    20
│    │    └─ReLU: 3-6                    [1, 4]                    --
│    │    └─ModuleList: 3-7              --                        (recursive)
│    │    │    └─Linear: 4-4             [1, 4]                    20
│    │    └─ReLU: 3-8                    [1, 4]                    --
│    └─Block: 2-3                        [1, 4]                    --
│    │    └─ModuleList: 3-11             --                        (recursive)
│    │    │    └─Linear: 4-5             [1, 4]                    20
│    │    └─ReLU: 3-10                   [1, 4]                    --
│    │    └─ModuleList: 3-11             --                        (recursive)
│    │    │    └─Linear: 4-6             [1, 4]                    20
│    │    └─ReLU: 3-12                   [1, 4]                    --
==========================================================================================
Total params: 120
Trainable params: 120
Non-trainable params: 0
Total mult-adds: 120
==========================================================================================
Input size: 72
Forward/backward pass size: 192
Params size: 480
Estimated Total Size: 744
==========================================================================================
