==========================================================================================
Layer (type:depth-idx)                   Output Shape              Param #
==========================================================================================
SiameseNets                              --                        --
├─Conv2d: 1-1                            [1, 64, 79, 79]           6,464
├─MaxPool2d: 1-2                         [1, 64, 39, 39]           --
├─Conv2d: 1-3                            [1, 128, 33, 33]          401,536
├─MaxPool2d: 1-4                         [1, 128, 16, 16]          --
├─Conv2d: 1-5                            [1, 128, 13, 13]          262,272
├─MaxPool2d: 1-6                         [1, 128, 6, 6]            --
├─Conv2d: 1-7                            [1, 256, 3, 3]            524,544
├─MaxPool2d: 1-8                         [1, 256, 1, 1]            --
├─Conv2d: 1-9                            [1, 64, 79, 79]           (recursive)
├─MaxPool2d: 1-10                        [1, 64, 39, 39]           --
├─Conv2d: 1-11                           [1, 128, 33, 33]          (recursive)
├─MaxPool2d: 1-12                        [1, 128, 16, 16]          --
├─Conv2d: 1-13                           [1, 128, 13, 13]          (recursive)
├─MaxPool2d: 1-14                        [1, 128, 6, 6]            --
├─Conv2d: 1-15                           [1, 256, 3, 3]            (recursive)
├─MaxPool2d: 1-16                        [1, 256, 1, 1]            --
├─Linear: 1-17                           [1, 4096]                 1,052,672
├─Linear: 1-18                           [1, 4096]                 (recursive)
├─Dropout: 1-19                          [1, 4096]                 --
├─Linear: 1-20                           [1, 1]                    4,097
==========================================================================================
Total params: 2,251,585
Trainable params: 2,251,585
Non-trainable params: 0
Total mult-adds (G): 1.06
==========================================================================================
Input size (MB): 0.06
Forward/backward pass size (MB): 4.53
Params size (MB): 9.01
Estimated Total Size (MB): 13.60
…
