==========================================================================================
Layer (type:depth-idx)                   Output Shape              Param #
==========================================================================================
ReuseReLU                                [4, 8, 11, 11]            --
├─Sequential: 1-1                        [4, 8, 11, 11]            --
│    └─ReflectionPad2d: 2-1              [4, 4, 70, 70]            --
│    └─Conv2d: 2-2                       [4, 1, 70, 70]            5
│    └─BatchNorm2d: 2-3                  [4, 1, 70, 70]            2
│    └─ReLU: 2-4                         [4, 1, 70, 70]            --
│    └─Conv2d: 2-5                       [4, 2, 36, 36]            4
│    └─BatchNorm2d: 2-6                  [4, 2, 36, 36]            4
│    └─ReLU: 2-7                         [4, 2, 36, 36]            --
│    └─Conv2d: 2-8                       [4, 4, 19, 19]            12
│    └─BatchNorm2d: 2-9                  [4, 4, 19, 19]            8
│    └─ReLU: 2-10                        [4, 4, 19, 19]            --
│    └─Conv2d: 2-11                      [4, 8, 11, 11]            40
│    └─BatchNorm2d: 2-12                 [4, 8, 11, 11]            16
│    └─ReLU: 2-13                        [4, 8, 11, 11]            --
==========================================================================================
Total params: 91
Trainable params: 91
Non-trainable params: 0
Total mult-adds (k): 155.54
==========================================================================================
Input size (kB): 262.22
Forward/backward pass size (kB): 633.86
Params size: 364
Estimated Total Size (kB): 896.44
==========================================================================================
